…
I0401 14:27:56.715669  2434 net.cpp:322] The NetState phase (0) differed from the phase (1) specified by a rule in layer data
I0401 14:27:56.715744  2434 net.cpp:322] The NetState phase (0) differed from the phase (1) specified by a rule in layer accuracy
I0401 14:27:56.715982  2434 net.cpp:49] Initializing net from parameters: 
name: "CaffeNet"
state {
  phase: TRAIN
}
layer {
  name: "data"
  type: "Data"
  top: "data"
  top: "label"
  include {
    phase: TRAIN
  }
  transform_param {
    mirror: true
    crop_size: 227
    mean_file: "/home/ubuntu/mean.binaryproto"
  }
  data_param {
    source: "/home/ubuntu/train_lmdb"
    batch_size: 256
    backend: LMDB
  }
}
layer {
  name: "conv1"
  type: "Convolution"
  bottom: "data"
  top: "conv1"
  param {
    lr_mult: 1
    decay_mult: 1
  }
  param {
    lr_mult: 2
    decay_mult: 0
  }
  convolution_param {
    num_output: 96
    kernel_size: 11
    stride: 4
    weight_filler {
      type: "gaussian"
      std: 0.01
    }
    bias_filler {
      type: "constant"
      value: 0
    }
  }
}
layer {
  name: "relu1"
  type: "ReLU"
  bottom: "conv1"
  top: "conv1"
}
layer {
  name: "pool1"
  type: "Pooling"
  bottom: "conv1"
  top: "pool1"
  pooling_param {
    pool: MAX
    kernel_size: 3
    stride: 2
  }
}
layer {
  name: "norm1"
  type: "LRN"
  bottom: "pool1"
  top: "norm1"
  lrn_param {
    local_size: 5
    alpha: 0.0001
    beta: 0.75
  }
}
layer {
  name: "conv2"
  type: "Convolution"
  bottom: "norm1"
  top: "conv2"
  param {
    lr_mult: 1
    decay_mult: 1
  }
  param {
    lr_mult: 2
    decay_mult: 0
  }
  convolution_param {
    num_output: 256
    pad: 2
    kernel_size: 5
    group: 2
    weight_filler {
      type: "gaussian"
      std: 0.01
    }
    bias_filler {
      type: "constant"
      value: 1
    }
  }
}
layer {
  name: "relu2"
  type: "ReLU"
  bottom: "conv2"
  top: "conv2"
}
layer {
  name: "pool2"
  type: "Pooling"
  bottom: "conv2"
  top: "pool2"
  pooling_param {
    pool: MAX
    kernel_size: 3
    stride: 2
  }
}
layer {
  name: "norm2"
  type: "LRN"
  bottom: "pool2"
  top: "norm2"
  lrn_param {
    local_size: 5
    alpha: 0.0001
    beta: 0.75
  }
}
layer {
  name: "conv3"
  type: "Convolution"
  bottom: "norm2"
  top: "conv3"
  param {
    lr_mult: 1
    decay_mult: 1
  }
  param {
    lr_mult: 2
    decay_mult: 0
  }
  convolution_param {
    num_output: 384
    pad: 1
    kernel_size: 3
    weight_filler {
      type: "gaussian"
      std: 0.01
    }
    bias_filler {
      type: "constant"
      value: 0
    }
  }
}
layer {
  name: "relu3"
  type: "ReLU"
  bottom: "conv3"
  top: "conv3"
}
layer {
  name: "conv4"
  type: "Convolution"
  bottom: "conv3"
  top: "conv4"
  param {
    lr_mult: 1
    decay_mult: 1
  }
  param {
    lr_mult: 2
    decay_mult: 0
  }
  convolution_param {
    num_output: 384
    pad: 1
    kernel_size: 3
    group: 2
    weight_filler {
      type: "gaussian"
      std: 0.01
    }
    bias_filler {
      type: "constant"
      value: 1
    }
  }
}
layer {
  name: "relu4"
  type: "ReLU"
  bottom: "conv4"
  top: "conv4"
}
layer {
  name: "conv5"
  type: "Convolution"
  bottom: "conv4"
  top: "conv5"
  param {
    lr_mult: 1
    decay_mult: 1
  }
  param {
    lr_mult: 2
    decay_mult: 0
  }
  convolution_param {
    num_output: 256
    pad: 1
    kernel_size: 3
    group: 2
    weight_filler {
      type: "gaussian"
      std: 0.01
    }
    bias_filler {
      type: "constant"
      value: 1
    }
  }
}
layer {
  name: "relu5"
  type: "ReLU"
  bottom: "conv5"
  top: "conv5"
}
layer {
  name: "pool5"
  type: "Pooling"
  bottom: "conv5"
  top: "pool5"
  pooling_param {
    pool: MAX
    kernel_size: 3
    stride: 2
  }
}
layer {
  name: "fc6"
  type: "InnerProduct"
  bottom: "pool5"
  top: "fc6"
  param {
    lr_mult: 1
    decay_mult: 1
  }
  param {
    lr_mult: 2
    decay_mult: 0
  }
  inner_product_param {
    num_output: 4096
    weight_filler {
      type: "gaussian"
      std: 0.005
    }
    bias_filler {
      type: "constant"
      value: 1
    }
  }
}
layer {
  name: "relu6"
  type: "ReLU"
  bottom: "fc6"
  top: "fc6"
}
layer {
  name: "drop6"
  type: "Dropout"
  bottom: "fc6"
  top: "fc6"
  dropout_param {
    dropout_ratio: 0.5
  }
}
layer {
  name: "fc7"
  type: "InnerProduct"
  bottom: "fc6"
  top: "fc7"
  param {
    lr_mult: 1
    decay_mult: 1
  }
  param {
    lr_mult: 2
    decay_mult: 0
  }
  inner_product_param {
    num_output: 4096
    weight_filler {
      type: "gaussian"
      std: 0.005
    }
    bias_filler {
      type: "constant"
      value: 1
    }
  }
}
layer {
  name: "relu7"
  type: "ReLU"
  bottom: "fc7"
  top: "fc7"
}
layer {
  name: "drop7"
  type: "Dropout"
  bottom: "fc7"
  top: "fc7"
  dropout_param {
    dropout_ratio: 0.5
  }
}
layer {
  name: "fc8-leaf"
  type: "InnerProduct"
  bottom: "fc7"
  top: "fc8-leaf"
  param {
    lr_mult: 1
    decay_mult: 1
  }
  param {
    lr_mult: 2
    decay_mult: 0
  }
  inner_product_param {
    num_output: 44
    weight_filler {
      type: "gaussian"
      std: 0.01
    }
    bias_filler {
      type: "constant"
      value: 0
    }
  }
}
layer {
  name: "loss"
  type: "SoftmaxWithLoss"
  bottom: "fc8-leaf"
  bottom: "label"
  top: "loss"
}
I0401 14:27:56.717741  2434 layer_factory.hpp:77] Creating layer data
I0401 14:27:56.721812  2434 net.cpp:106] Creating Layer data
I0401 14:27:56.721845  2434 net.cpp:411] data -> data
I0401 14:27:56.721889  2434 net.cpp:411] data -> label
I0401 14:27:56.721917  2434 data_transformer.cpp:25] Loading mean file from: /home/ubuntu/mean.binaryproto
I0401 14:27:56.722584  2441 db_lmdb.cpp:38] Opened lmdb /home/ubuntu/train_lmdb
I0401 14:27:57.394646  2434 data_layer.cpp:41] output data size: 256,3,227,227
I0401 14:27:57.675925  2434 net.cpp:150] Setting up data
I0401 14:27:57.676019  2434 net.cpp:157] Top shape: 256 3 227 227 (39574272)
I0401 14:27:57.676034  2434 net.cpp:157] Top shape: 256 (256)
I0401 14:27:57.676039  2434 net.cpp:165] Memory required for data: 158298112
I0401 14:27:57.676056  2434 layer_factory.hpp:77] Creating layer conv1
I0401 14:27:57.676097  2434 net.cpp:106] Creating Layer conv1
I0401 14:27:57.676115  2434 net.cpp:454] conv1 <- data
I0401 14:27:57.676146  2434 net.cpp:411] conv1 -> conv1
I0401 14:28:05.235035  2434 net.cpp:150] Setting up conv1
I0401 14:28:05.235090  2434 net.cpp:157] Top shape: 256 96 55 55 (74342400)
I0401 14:28:05.235097  2434 net.cpp:165] Memory required for data: 455667712
I0401 14:28:05.235128  2434 layer_factory.hpp:77] Creating layer relu1
I0401 14:28:05.235148  2434 net.cpp:106] Creating Layer relu1
I0401 14:28:05.235155  2434 net.cpp:454] relu1 <- conv1
I0401 14:28:05.235165  2434 net.cpp:397] relu1 -> conv1 (in-place)
I0401 14:28:05.235399  2434 net.cpp:150] Setting up relu1
I0401 14:28:05.235424  2434 net.cpp:157] Top shape: 256 96 55 55 (74342400)
I0401 14:28:05.235429  2434 net.cpp:165] Memory required for data: 753037312
I0401 14:28:05.235435  2434 layer_factory.hpp:77] Creating layer pool1
I0401 14:28:05.235447  2434 net.cpp:106] Creating Layer pool1
I0401 14:28:05.235452  2434 net.cpp:454] pool1 <- conv1
I0401 14:28:05.235462  2434 net.cpp:411] pool1 -> pool1
I0401 14:28:05.235523  2434 net.cpp:150] Setting up pool1
I0401 14:28:05.235543  2434 net.cpp:157] Top shape: 256 96 27 27 (17915904)
I0401 14:28:05.235548  2434 net.cpp:165] Memory required for data: 824700928
I0401 14:28:05.235553  2434 layer_factory.hpp:77] Creating layer norm1
I0401 14:28:05.235571  2434 net.cpp:106] Creating Layer norm1
I0401 14:28:05.235580  2434 net.cpp:454] norm1 <- pool1
I0401 14:28:05.235587  2434 net.cpp:411] norm1 -> norm1
I0401 14:28:05.235869  2434 net.cpp:150] Setting up norm1
I0401 14:28:05.235890  2434 net.cpp:157] Top shape: 256 96 27 27 (17915904)
I0401 14:28:05.235915  2434 net.cpp:165] Memory required for data: 896364544
I0401 14:28:05.235921  2434 layer_factory.hpp:77] Creating layer conv2
I0401 14:28:05.235946  2434 net.cpp:106] Creating Layer conv2
I0401 14:28:05.235958  2434 net.cpp:454] conv2 <- norm1
I0401 14:28:05.235968  2434 net.cpp:411] conv2 -> conv2
I0401 14:28:05.248296  2434 net.cpp:150] Setting up conv2
I0401 14:28:05.248330  2434 net.cpp:157] Top shape: 256 256 27 27 (47775744)
I0401 14:28:05.248337  2434 net.cpp:165] Memory required for data: 1087467520
I0401 14:28:05.248356  2434 layer_factory.hpp:77] Creating layer relu2
I0401 14:28:05.248370  2434 net.cpp:106] Creating Layer relu2
I0401 14:28:05.248376  2434 net.cpp:454] relu2 <- conv2
I0401 14:28:05.248385  2434 net.cpp:397] relu2 -> conv2 (in-place)
I0401 14:28:05.248623  2434 net.cpp:150] Setting up relu2
I0401 14:28:05.248646  2434 net.cpp:157] Top shape: 256 256 27 27 (47775744)
I0401 14:28:05.248651  2434 net.cpp:165] Memory required for data: 1278570496
I0401 14:28:05.248656  2434 layer_factory.hpp:77] Creating layer pool2
I0401 14:28:05.248666  2434 net.cpp:106] Creating Layer pool2
I0401 14:28:05.248670  2434 net.cpp:454] pool2 <- conv2
I0401 14:28:05.248682  2434 net.cpp:411] pool2 -> pool2
I0401 14:28:05.248729  2434 net.cpp:150] Setting up pool2
I0401 14:28:05.248745  2434 net.cpp:157] Top shape: 256 256 13 13 (11075584)
I0401 14:28:05.248750  2434 net.cpp:165] Memory required for data: 1322872832
I0401 14:28:05.248755  2434 layer_factory.hpp:77] Creating layer norm2
I0401 14:28:05.248769  2434 net.cpp:106] Creating Layer norm2
I0401 14:28:05.248775  2434 net.cpp:454] norm2 <- pool2
I0401 14:28:05.248781  2434 net.cpp:411] norm2 -> norm2
I0401 14:28:05.248949  2434 net.cpp:150] Setting up norm2
I0401 14:28:05.248967  2434 net.cpp:157] Top shape: 256 256 13 13 (11075584)
I0401 14:28:05.248972  2434 net.cpp:165] Memory required for data: 1367175168
I0401 14:28:05.248977  2434 layer_factory.hpp:77] Creating layer conv3
I0401 14:28:05.248993  2434 net.cpp:106] Creating Layer conv3
I0401 14:28:05.248998  2434 net.cpp:454] conv3 <- norm2
I0401 14:28:05.249009  2434 net.cpp:411] conv3 -> conv3
I0401 14:28:05.279479  2434 net.cpp:150] Setting up conv3
I0401 14:28:05.279536  2434 net.cpp:157] Top shape: 256 384 13 13 (16613376)
I0401 14:28:05.279543  2434 net.cpp:165] Memory required for data: 1433628672
I0401 14:28:05.279562  2434 layer_factory.hpp:77] Creating layer relu3
I0401 14:28:05.279577  2434 net.cpp:106] Creating Layer relu3
I0401 14:28:05.279587  2434 net.cpp:454] relu3 <- conv3
I0401 14:28:05.279597  2434 net.cpp:397] relu3 -> conv3 (in-place)
I0401 14:28:05.279834  2434 net.cpp:150] Setting up relu3
I0401 14:28:05.279855  2434 net.cpp:157] Top shape: 256 384 13 13 (16613376)
I0401 14:28:05.279860  2434 net.cpp:165] Memory required for data: 1500082176
I0401 14:28:05.279866  2434 layer_factory.hpp:77] Creating layer conv4
I0401 14:28:05.279884  2434 net.cpp:106] Creating Layer conv4
I0401 14:28:05.279892  2434 net.cpp:454] conv4 <- conv3
I0401 14:28:05.279903  2434 net.cpp:411] conv4 -> conv4
I0401 14:28:05.303627  2434 net.cpp:150] Setting up conv4
I0401 14:28:05.303674  2434 net.cpp:157] Top shape: 256 384 13 13 (16613376)
I0401 14:28:05.303681  2434 net.cpp:165] Memory required for data: 1566535680
I0401 14:28:05.303694  2434 layer_factory.hpp:77] Creating layer relu4
I0401 14:28:05.303707  2434 net.cpp:106] Creating Layer relu4
I0401 14:28:05.303714  2434 net.cpp:454] relu4 <- conv4
I0401 14:28:05.303726  2434 net.cpp:397] relu4 -> conv4 (in-place)
I0401 14:28:05.303964  2434 net.cpp:150] Setting up relu4
I0401 14:28:05.303985  2434 net.cpp:157] Top shape: 256 384 13 13 (16613376)
I0401 14:28:05.303992  2434 net.cpp:165] Memory required for data: 1632989184
I0401 14:28:05.303997  2434 layer_factory.hpp:77] Creating layer conv5
I0401 14:28:05.304015  2434 net.cpp:106] Creating Layer conv5
I0401 14:28:05.304023  2434 net.cpp:454] conv5 <- conv4
I0401 14:28:05.304033  2434 net.cpp:411] conv5 -> conv5
I0401 14:28:05.320528  2434 net.cpp:150] Setting up conv5
I0401 14:28:05.320591  2434 net.cpp:157] Top shape: 256 256 13 13 (11075584)
I0401 14:28:05.320598  2434 net.cpp:165] Memory required for data: 1677291520
I0401 14:28:05.320619  2434 layer_factory.hpp:77] Creating layer relu5
I0401 14:28:05.320632  2434 net.cpp:106] Creating Layer relu5
I0401 14:28:05.320638  2434 net.cpp:454] relu5 <- conv5
I0401 14:28:05.320647  2434 net.cpp:397] relu5 -> conv5 (in-place)
I0401 14:28:05.320801  2434 net.cpp:150] Setting up relu5
I0401 14:28:05.320821  2434 net.cpp:157] Top shape: 256 256 13 13 (11075584)
I0401 14:28:05.320825  2434 net.cpp:165] Memory required for data: 1721593856
I0401 14:28:05.320830  2434 layer_factory.hpp:77] Creating layer pool5
I0401 14:28:05.320842  2434 net.cpp:106] Creating Layer pool5
I0401 14:28:05.320847  2434 net.cpp:454] pool5 <- conv5
I0401 14:28:05.320858  2434 net.cpp:411] pool5 -> pool5
I0401 14:28:05.320909  2434 net.cpp:150] Setting up pool5
I0401 14:28:05.320925  2434 net.cpp:157] Top shape: 256 256 6 6 (2359296)
I0401 14:28:05.320931  2434 net.cpp:165] Memory required for data: 1731031040
I0401 14:28:05.320936  2434 layer_factory.hpp:77] Creating layer fc6
I0401 14:28:05.320955  2434 net.cpp:106] Creating Layer fc6
I0401 14:28:05.320963  2434 net.cpp:454] fc6 <- pool5
I0401 14:28:05.320971  2434 net.cpp:411] fc6 -> fc6
I0401 14:28:06.598186  2434 net.cpp:150] Setting up fc6
I0401 14:28:06.598239  2434 net.cpp:157] Top shape: 256 4096 (1048576)
I0401 14:28:06.598249  2434 net.cpp:165] Memory required for data: 1735225344
I0401 14:28:06.598271  2434 layer_factory.hpp:77] Creating layer relu6
I0401 14:28:06.598290  2434 net.cpp:106] Creating Layer relu6
I0401 14:28:06.598297  2434 net.cpp:454] relu6 <- fc6
I0401 14:28:06.598307  2434 net.cpp:397] relu6 -> fc6 (in-place)
I0401 14:28:06.598736  2434 net.cpp:150] Setting up relu6
I0401 14:28:06.598755  2434 net.cpp:157] Top shape: 256 4096 (1048576)
I0401 14:28:06.598760  2434 net.cpp:165] Memory required for data: 1739419648
I0401 14:28:06.598767  2434 layer_factory.hpp:77] Creating layer drop6
I0401 14:28:06.598784  2434 net.cpp:106] Creating Layer drop6
I0401 14:28:06.598790  2434 net.cpp:454] drop6 <- fc6
I0401 14:28:06.598798  2434 net.cpp:397] drop6 -> fc6 (in-place)
I0401 14:28:06.598835  2434 net.cpp:150] Setting up drop6
I0401 14:28:06.598851  2434 net.cpp:157] Top shape: 256 4096 (1048576)
I0401 14:28:06.598856  2434 net.cpp:165] Memory required for data: 1743613952
I0401 14:28:06.598861  2434 layer_factory.hpp:77] Creating layer fc7
I0401 14:28:06.598871  2434 net.cpp:106] Creating Layer fc7
I0401 14:28:06.598875  2434 net.cpp:454] fc7 <- fc6
I0401 14:28:06.598888  2434 net.cpp:411] fc7 -> fc7
I0401 14:28:07.168135  2434 net.cpp:150] Setting up fc7
I0401 14:28:07.168189  2434 net.cpp:157] Top shape: 256 4096 (1048576)
I0401 14:28:07.168195  2434 net.cpp:165] Memory required for data: 1747808256
I0401 14:28:07.168208  2434 layer_factory.hpp:77] Creating layer relu7
I0401 14:28:07.168225  2434 net.cpp:106] Creating Layer relu7
I0401 14:28:07.168231  2434 net.cpp:454] relu7 <- fc7
I0401 14:28:07.168244  2434 net.cpp:397] relu7 -> fc7 (in-place)
I0401 14:28:07.168460  2434 net.cpp:150] Setting up relu7
I0401 14:28:07.168480  2434 net.cpp:157] Top shape: 256 4096 (1048576)
I0401 14:28:07.168485  2434 net.cpp:165] Memory required for data: 1752002560
I0401 14:28:07.168491  2434 layer_factory.hpp:77] Creating layer drop7
I0401 14:28:07.168503  2434 net.cpp:106] Creating Layer drop7
I0401 14:28:07.168509  2434 net.cpp:454] drop7 <- fc7
I0401 14:28:07.168519  2434 net.cpp:397] drop7 -> fc7 (in-place)
I0401 14:28:07.168545  2434 net.cpp:150] Setting up drop7
I0401 14:28:07.168560  2434 net.cpp:157] Top shape: 256 4096 (1048576)
I0401 14:28:07.168565  2434 net.cpp:165] Memory required for data: 1756196864
I0401 14:28:07.168570  2434 layer_factory.hpp:77] Creating layer fc8-leaf
I0401 14:28:07.168581  2434 net.cpp:106] Creating Layer fc8-leaf
I0401 14:28:07.168586  2434 net.cpp:454] fc8-leaf <- fc7
I0401 14:28:07.168597  2434 net.cpp:411] fc8-leaf -> fc8-leaf
I0401 14:28:07.175002  2434 net.cpp:150] Setting up fc8-leaf
I0401 14:28:07.175042  2434 net.cpp:157] Top shape: 256 44 (11264)
I0401 14:28:07.175048  2434 net.cpp:165] Memory required for data: 1756241920
I0401 14:28:07.175058  2434 layer_factory.hpp:77] Creating layer loss
I0401 14:28:07.175074  2434 net.cpp:106] Creating Layer loss
I0401 14:28:07.175079  2434 net.cpp:454] loss <- fc8-leaf
I0401 14:28:07.175086  2434 net.cpp:454] loss <- label
I0401 14:28:07.175097  2434 net.cpp:411] loss -> loss
I0401 14:28:07.175146  2434 layer_factory.hpp:77] Creating layer loss
…
I0401 14:28:07.177875  2434 solver.cpp:181] Creating test net (#0) specified by net file: /home/ubuntu/train_val.prototxt
I0401 14:28:07.177947  2434 net.cpp:322] The NetState phase (1) differed from the phase (0) specified by a rule in layer data
I0401 14:28:07.178184  2434 net.cpp:49] Initializing net from parameters: 
name: "CaffeNet"
state {
  phase: TEST
}
layer {
  name: "data"
  type: "Data"
  top: "data"
  top: "label"
  include {
    phase: TEST
  }
  transform_param {
    mirror: false
    crop_size: 227
    mean_file: "/home/ubuntu/mean.binaryproto"
  }
  data_param {
    source: "/home/ubuntu/validation_lmdb"
    batch_size: 50
    backend: LMDB
  }
}
layer {
  name: "conv1"
  type: "Convolution"
  bottom: "data"
  top: "conv1"
  param {
    lr_mult: 1
    decay_mult: 1
  }
  param {
    lr_mult: 2
    decay_mult: 0
  }
  convolution_param {
    num_output: 96
    kernel_size: 11
    stride: 4
    weight_filler {
      type: "gaussian"
      std: 0.01
    }
    bias_filler {
      type: "constant"
      value: 0
    }
  }
}
layer {
  name: "relu1"
  type: "ReLU"
  bottom: "conv1"
  top: "conv1"
}
layer {
  name: "pool1"
  type: "Pooling"
  bottom: "conv1"
  top: "pool1"
  pooling_param {
    pool: MAX
    kernel_size: 3
    stride: 2
  }
}
layer {
  name: "norm1"
  type: "LRN"
  bottom: "pool1"
  top: "norm1"
  lrn_param {
    local_size: 5
    alpha: 0.0001
    beta: 0.75
  }
}
layer {
  name: "conv2"
  type: "Convolution"
  bottom: "norm1"
  top: "conv2"
  param {
    lr_mult: 1
    decay_mult: 1
  }
  param {
    lr_mult: 2
    decay_mult: 0
  }
  convolution_param {
    num_output: 256
    pad: 2
    kernel_size: 5
    group: 2
    weight_filler {
      type: "gaussian"
      std: 0.01
    }
    bias_filler {
      type: "constant"
      value: 1
    }
  }
}
layer {
  name: "relu2"
  type: "ReLU"
  bottom: "conv2"
  top: "conv2"
}
layer {
  name: "pool2"
  type: "Pooling"
  bottom: "conv2"
  top: "pool2"
  pooling_param {
    pool: MAX
    kernel_size: 3
    stride: 2
  }
}
layer {
  name: "norm2"
  type: "LRN"
  bottom: "pool2"
  top: "norm2"
  lrn_param {
    local_size: 5
    alpha: 0.0001
    beta: 0.75
  }
}
layer {
  name: "conv3"
  type: "Convolution"
  bottom: "norm2"
  top: "conv3"
  param {
    lr_mult: 1
    decay_mult: 1
  }
  param {
    lr_mult: 2
    decay_mult: 0
  }
  convolution_param {
    num_output: 384
    pad: 1
    kernel_size: 3
    weight_filler {
      type: "gaussian"
      std: 0.01
    }
    bias_filler {
      type: "constant"
      value: 0
    }
  }
}
layer {
  name: "relu3"
  type: "ReLU"
  bottom: "conv3"
  top: "conv3"
}
layer {
  name: "conv4"
  type: "Convolution"
  bottom: "conv3"
  top: "conv4"
  param {
    lr_mult: 1
    decay_mult: 1
  }
  param {
    lr_mult: 2
    decay_mult: 0
  }
  convolution_param {
    num_output: 384
    pad: 1
    kernel_size: 3
    group: 2
    weight_filler {
      type: "gaussian"
      std: 0.01
    }
    bias_filler {
      type: "constant"
      value: 1
    }
  }
}
layer {
  name: "relu4"
  type: "ReLU"
  bottom: "conv4"
  top: "conv4"
}
layer {
  name: "conv5"
  type: "Convolution"
  bottom: "conv4"
  top: "conv5"
  param {
    lr_mult: 1
    decay_mult: 1
  }
  param {
    lr_mult: 2
    decay_mult: 0
  }
  convolution_param {
    num_output: 256
    pad: 1
    kernel_size: 3
    group: 2
    weight_filler {
      type: "gaussian"
      std: 0.01
    }
    bias_filler {
      type: "constant"
      value: 1
    }
  }
}
layer {
  name: "relu5"
  type: "ReLU"
  bottom: "conv5"
  top: "conv5"
}
layer {
  name: "pool5"
  type: "Pooling"
  bottom: "conv5"
  top: "pool5"
  pooling_param {
    pool: MAX
    kernel_size: 3
    stride: 2
  }
}
layer {
  name: "fc6"
  type: "InnerProduct"
  bottom: "pool5"
  top: "fc6"
  param {
    lr_mult: 1
    decay_mult: 1
  }
  param {
    lr_mult: 2
    decay_mult: 0
  }
  inner_product_param {
    num_output: 4096
    weight_filler {
      type: "gaussian"
      std: 0.005
    }
    bias_filler {
      type: "constant"
      value: 1
    }
  }
}
layer {
  name: "relu6"
  type: "ReLU"
  bottom: "fc6"
  top: "fc6"
}
layer {
  name: "drop6"
  type: "Dropout"
  bottom: "fc6"
  top: "fc6"
  dropout_param {
    dropout_ratio: 0.5
  }
}
layer {
  name: "fc7"
  type: "InnerProduct"
  bottom: "fc6"
  top: "fc7"
  param {
    lr_mult: 1
    decay_mult: 1
  }
  param {
    lr_mult: 2
    decay_mult: 0
  }
  inner_product_param {
    num_output: 4096
    weight_filler {
      type: "gaussian"
      std: 0.005
    }
    bias_filler {
      type: "constant"
      value: 1
    }
  }
}
layer {
  name: "relu7"
  type: "ReLU"
  bottom: "fc7"
  top: "fc7"
}
layer {
  name: "drop7"
  type: "Dropout"
  bottom: "fc7"
  top: "fc7"
  dropout_param {
    dropout_ratio: 0.5
  }
}
layer {
  name: "fc8-leaf"
  type: "InnerProduct"
  bottom: "fc7"
  top: "fc8-leaf"
  param {
    lr_mult: 1
    decay_mult: 1
  }
  param {
    lr_mult: 2
    decay_mult: 0
  }
  inner_product_param {
    num_output: 44
    weight_filler {
      type: "gaussian"
      std: 0.01
    }
    bias_filler {
      type: "constant"
      value: 0
    }
  }
}
layer {
  name: "accuracy"
  type: "Accuracy"
  bottom: "fc8-leaf"
  bottom: "label"
  top: "accuracy"
  include {
    phase: TEST
  }
}
layer {
  name: "loss"
  type: "SoftmaxWithLoss"
  bottom: "fc8-leaf"
  bottom: "label"
  top: "loss"
}
I0401 14:28:07.178350  2434 layer_factory.hpp:77] Creating layer data
I0401 14:28:07.178820  2434 net.cpp:106] Creating Layer data
I0401 14:28:07.178838  2434 net.cpp:411] data -> data
I0401 14:28:07.178850  2434 net.cpp:411] data -> label
I0401 14:28:07.178864  2434 data_transformer.cpp:25] Loading mean file from: /home/ubuntu/mean.binaryproto
I0401 14:28:07.179548  2443 db_lmdb.cpp:38] Opened lmdb /home/ubuntu/validation_lmdb
I0401 14:28:07.181362  2434 data_layer.cpp:41] output data size: 50,3,227,227
I0401 14:28:07.238023  2434 net.cpp:150] Setting up data
I0401 14:28:07.238072  2434 net.cpp:157] Top shape: 50 3 227 227 (7729350)
I0401 14:28:07.238080  2434 net.cpp:157] Top shape: 50 (50)
I0401 14:28:07.238085  2434 net.cpp:165] Memory required for data: 30917600
I0401 14:28:07.238095  2434 layer_factory.hpp:77] Creating layer label_data_1_split
I0401 14:28:07.238112  2434 net.cpp:106] Creating Layer label_data_1_split
I0401 14:28:07.238119  2434 net.cpp:454] label_data_1_split <- label
I0401 14:28:07.238129  2434 net.cpp:411] label_data_1_split -> label_data_1_split_0
I0401 14:28:07.238142  2434 net.cpp:411] label_data_1_split -> label_data_1_split_1
I0401 14:28:07.238232  2434 net.cpp:150] Setting up label_data_1_split
I0401 14:28:07.238250  2434 net.cpp:157] Top shape: 50 (50)
I0401 14:28:07.238256  2434 net.cpp:157] Top shape: 50 (50)
I0401 14:28:07.238260  2434 net.cpp:165] Memory required for data: 30918000
I0401 14:28:07.238265  2434 layer_factory.hpp:77] Creating layer conv1
I0401 14:28:07.238283  2434 net.cpp:106] Creating Layer conv1
I0401 14:28:07.238289  2434 net.cpp:454] conv1 <- data
I0401 14:28:07.238298  2434 net.cpp:411] conv1 -> conv1
I0401 14:28:07.243541  2434 net.cpp:150] Setting up conv1
I0401 14:28:07.243577  2434 net.cpp:157] Top shape: 50 96 55 55 (14520000)
I0401 14:28:07.243582  2434 net.cpp:165] Memory required for data: 88998000
I0401 14:28:07.243597  2434 layer_factory.hpp:77] Creating layer relu1
I0401 14:28:07.243608  2434 net.cpp:106] Creating Layer relu1
I0401 14:28:07.243613  2434 net.cpp:454] relu1 <- conv1
I0401 14:28:07.243629  2434 net.cpp:397] relu1 -> conv1 (in-place)
I0401 14:28:07.243779  2434 net.cpp:150] Setting up relu1
I0401 14:28:07.243798  2434 net.cpp:157] Top shape: 50 96 55 55 (14520000)
I0401 14:28:07.243806  2434 net.cpp:165] Memory required for data: 147078000
I0401 14:28:07.243813  2434 layer_factory.hpp:77] Creating layer pool1
I0401 14:28:07.243824  2434 net.cpp:106] Creating Layer pool1
I0401 14:28:07.243829  2434 net.cpp:454] pool1 <- conv1
I0401 14:28:07.243836  2434 net.cpp:411] pool1 -> pool1
I0401 14:28:07.243885  2434 net.cpp:150] Setting up pool1
I0401 14:28:07.243902  2434 net.cpp:157] Top shape: 50 96 27 27 (3499200)
I0401 14:28:07.243907  2434 net.cpp:165] Memory required for data: 161074800
I0401 14:28:07.243912  2434 layer_factory.hpp:77] Creating layer norm1
I0401 14:28:07.243923  2434 net.cpp:106] Creating Layer norm1
I0401 14:28:07.243928  2434 net.cpp:454] norm1 <- pool1
I0401 14:28:07.243935  2434 net.cpp:411] norm1 -> norm1
I0401 14:28:07.244215  2434 net.cpp:150] Setting up norm1
I0401 14:28:07.244235  2434 net.cpp:157] Top shape: 50 96 27 27 (3499200)
I0401 14:28:07.244240  2434 net.cpp:165] Memory required for data: 175071600
I0401 14:28:07.244246  2434 layer_factory.hpp:77] Creating layer conv2
I0401 14:28:07.244259  2434 net.cpp:106] Creating Layer conv2
I0401 14:28:07.244264  2434 net.cpp:454] conv2 <- norm1
I0401 14:28:07.244273  2434 net.cpp:411] conv2 -> conv2
I0401 14:28:07.256525  2434 net.cpp:150] Setting up conv2
I0401 14:28:07.256567  2434 net.cpp:157] Top shape: 50 256 27 27 (9331200)
I0401 14:28:07.256573  2434 net.cpp:165] Memory required for data: 212396400
I0401 14:28:07.256593  2434 layer_factory.hpp:77] Creating layer relu2
I0401 14:28:07.256608  2434 net.cpp:106] Creating Layer relu2
I0401 14:28:07.256614  2434 net.cpp:454] relu2 <- conv2
I0401 14:28:07.256623  2434 net.cpp:397] relu2 -> conv2 (in-place)
I0401 14:28:07.256867  2434 net.cpp:150] Setting up relu2
I0401 14:28:07.256888  2434 net.cpp:157] Top shape: 50 256 27 27 (9331200)
I0401 14:28:07.256894  2434 net.cpp:165] Memory required for data: 249721200
I0401 14:28:07.256925  2434 layer_factory.hpp:77] Creating layer pool2
I0401 14:28:07.256940  2434 net.cpp:106] Creating Layer pool2
I0401 14:28:07.256945  2434 net.cpp:454] pool2 <- conv2
I0401 14:28:07.256954  2434 net.cpp:411] pool2 -> pool2
I0401 14:28:07.257014  2434 net.cpp:150] Setting up pool2
I0401 14:28:07.257040  2434 net.cpp:157] Top shape: 50 256 13 13 (2163200)
I0401 14:28:07.257045  2434 net.cpp:165] Memory required for data: 258374000
I0401 14:28:07.257051  2434 layer_factory.hpp:77] Creating layer norm2
I0401 14:28:07.257063  2434 net.cpp:106] Creating Layer norm2
I0401 14:28:07.257068  2434 net.cpp:454] norm2 <- pool2
I0401 14:28:07.257076  2434 net.cpp:411] norm2 -> norm2
I0401 14:28:07.257254  2434 net.cpp:150] Setting up norm2
I0401 14:28:07.257274  2434 net.cpp:157] Top shape: 50 256 13 13 (2163200)
I0401 14:28:07.257279  2434 net.cpp:165] Memory required for data: 267026800
I0401 14:28:07.257284  2434 layer_factory.hpp:77] Creating layer conv3
I0401 14:28:07.257303  2434 net.cpp:106] Creating Layer conv3
I0401 14:28:07.257309  2434 net.cpp:454] conv3 <- norm2
I0401 14:28:07.257318  2434 net.cpp:411] conv3 -> conv3
I0401 14:28:07.288329  2434 net.cpp:150] Setting up conv3
I0401 14:28:07.288375  2434 net.cpp:157] Top shape: 50 384 13 13 (3244800)
I0401 14:28:07.288383  2434 net.cpp:165] Memory required for data: 280006000
I0401 14:28:07.288403  2434 layer_factory.hpp:77] Creating layer relu3
I0401 14:28:07.288419  2434 net.cpp:106] Creating Layer relu3
I0401 14:28:07.288425  2434 net.cpp:454] relu3 <- conv3
I0401 14:28:07.288435  2434 net.cpp:397] relu3 -> conv3 (in-place)
I0401 14:28:07.288686  2434 net.cpp:150] Setting up relu3
I0401 14:28:07.288707  2434 net.cpp:157] Top shape: 50 384 13 13 (3244800)
I0401 14:28:07.288713  2434 net.cpp:165] Memory required for data: 292985200
I0401 14:28:07.288718  2434 layer_factory.hpp:77] Creating layer conv4
I0401 14:28:07.288734  2434 net.cpp:106] Creating Layer conv4
I0401 14:28:07.288740  2434 net.cpp:454] conv4 <- conv3
I0401 14:28:07.288749  2434 net.cpp:411] conv4 -> conv4
I0401 14:28:07.317993  2434 net.cpp:150] Setting up conv4
I0401 14:28:07.318037  2434 net.cpp:157] Top shape: 50 384 13 13 (3244800)
I0401 14:28:07.318043  2434 net.cpp:165] Memory required for data: 305964400
I0401 14:28:07.318056  2434 layer_factory.hpp:77] Creating layer relu4
I0401 14:28:07.318073  2434 net.cpp:106] Creating Layer relu4
I0401 14:28:07.318080  2434 net.cpp:454] relu4 <- conv4
I0401 14:28:07.318091  2434 net.cpp:397] relu4 -> conv4 (in-place)
I0401 14:28:07.318357  2434 net.cpp:150] Setting up relu4
I0401 14:28:07.318378  2434 net.cpp:157] Top shape: 50 384 13 13 (3244800)
I0401 14:28:07.318384  2434 net.cpp:165] Memory required for data: 318943600
I0401 14:28:07.318390  2434 layer_factory.hpp:77] Creating layer conv5
I0401 14:28:07.318408  2434 net.cpp:106] Creating Layer conv5
I0401 14:28:07.318413  2434 net.cpp:454] conv5 <- conv4
I0401 14:28:07.318423  2434 net.cpp:411] conv5 -> conv5
I0401 14:28:07.335086  2434 net.cpp:150] Setting up conv5
I0401 14:28:07.335131  2434 net.cpp:157] Top shape: 50 256 13 13 (2163200)
I0401 14:28:07.335137  2434 net.cpp:165] Memory required for data: 327596400
I0401 14:28:07.335157  2434 layer_factory.hpp:77] Creating layer relu5
I0401 14:28:07.335173  2434 net.cpp:106] Creating Layer relu5
I0401 14:28:07.335180  2434 net.cpp:454] relu5 <- conv5
I0401 14:28:07.335191  2434 net.cpp:397] relu5 -> conv5 (in-place)
I0401 14:28:07.335450  2434 net.cpp:150] Setting up relu5
I0401 14:28:07.335472  2434 net.cpp:157] Top shape: 50 256 13 13 (2163200)
I0401 14:28:07.335479  2434 net.cpp:165] Memory required for data: 336249200
I0401 14:28:07.335484  2434 layer_factory.hpp:77] Creating layer pool5
I0401 14:28:07.335497  2434 net.cpp:106] Creating Layer pool5
I0401 14:28:07.335502  2434 net.cpp:454] pool5 <- conv5
I0401 14:28:07.335510  2434 net.cpp:411] pool5 -> pool5
I0401 14:28:07.335566  2434 net.cpp:150] Setting up pool5
I0401 14:28:07.335583  2434 net.cpp:157] Top shape: 50 256 6 6 (460800)
I0401 14:28:07.335588  2434 net.cpp:165] Memory required for data: 338092400
I0401 14:28:07.335618  2434 layer_factory.hpp:77] Creating layer fc6
I0401 14:28:07.335630  2434 net.cpp:106] Creating Layer fc6
I0401 14:28:07.335635  2434 net.cpp:454] fc6 <- pool5
I0401 14:28:07.335644  2434 net.cpp:411] fc6 -> fc6
I0401 14:28:08.628013  2434 net.cpp:150] Setting up fc6
I0401 14:28:08.628064  2434 net.cpp:157] Top shape: 50 4096 (204800)
I0401 14:28:08.628072  2434 net.cpp:165] Memory required for data: 338911600
I0401 14:28:08.628087  2434 layer_factory.hpp:77] Creating layer relu6
I0401 14:28:08.628103  2434 net.cpp:106] Creating Layer relu6
I0401 14:28:08.628110  2434 net.cpp:454] relu6 <- fc6
I0401 14:28:08.628121  2434 net.cpp:397] relu6 -> fc6 (in-place)
I0401 14:28:08.628330  2434 net.cpp:150] Setting up relu6
I0401 14:28:08.628352  2434 net.cpp:157] Top shape: 50 4096 (204800)
I0401 14:28:08.628358  2434 net.cpp:165] Memory required for data: 339730800
I0401 14:28:08.628363  2434 layer_factory.hpp:77] Creating layer drop6
I0401 14:28:08.628374  2434 net.cpp:106] Creating Layer drop6
I0401 14:28:08.628379  2434 net.cpp:454] drop6 <- fc6
I0401 14:28:08.628387  2434 net.cpp:397] drop6 -> fc6 (in-place)
I0401 14:28:08.628423  2434 net.cpp:150] Setting up drop6
I0401 14:28:08.628434  2434 net.cpp:157] Top shape: 50 4096 (204800)
I0401 14:28:08.628439  2434 net.cpp:165] Memory required for data: 340550000
I0401 14:28:08.628444  2434 layer_factory.hpp:77] Creating layer fc7
I0401 14:28:08.628454  2434 net.cpp:106] Creating Layer fc7
I0401 14:28:08.628459  2434 net.cpp:454] fc7 <- fc6
I0401 14:28:08.628468  2434 net.cpp:411] fc7 -> fc7
I0401 14:28:09.240965  2434 net.cpp:150] Setting up fc7
I0401 14:28:09.241019  2434 net.cpp:157] Top shape: 50 4096 (204800)
I0401 14:28:09.241025  2434 net.cpp:165] Memory required for data: 341369200
I0401 14:28:09.241039  2434 layer_factory.hpp:77] Creating layer relu7
I0401 14:28:09.241056  2434 net.cpp:106] Creating Layer relu7
I0401 14:28:09.241062  2434 net.cpp:454] relu7 <- fc7
I0401 14:28:09.241073  2434 net.cpp:397] relu7 -> fc7 (in-place)
I0401 14:28:09.241447  2434 net.cpp:150] Setting up relu7
I0401 14:28:09.241469  2434 net.cpp:157] Top shape: 50 4096 (204800)
I0401 14:28:09.241474  2434 net.cpp:165] Memory required for data: 342188400
I0401 14:28:09.241479  2434 layer_factory.hpp:77] Creating layer drop7
I0401 14:28:09.241490  2434 net.cpp:106] Creating Layer drop7
I0401 14:28:09.241495  2434 net.cpp:454] drop7 <- fc7
I0401 14:28:09.241503  2434 net.cpp:397] drop7 -> fc7 (in-place)
I0401 14:28:09.241540  2434 net.cpp:150] Setting up drop7
I0401 14:28:09.241550  2434 net.cpp:157] Top shape: 50 4096 (204800)
I0401 14:28:09.241555  2434 net.cpp:165] Memory required for data: 343007600
I0401 14:28:09.241560  2434 layer_factory.hpp:77] Creating layer fc8-leaf
I0401 14:28:09.241571  2434 net.cpp:106] Creating Layer fc8-leaf
I0401 14:28:09.241576  2434 net.cpp:454] fc8-leaf <- fc7
I0401 14:28:09.241585  2434 net.cpp:411] fc8-leaf -> fc8-leaf
I0401 14:28:09.248123  2434 net.cpp:150] Setting up fc8-leaf
I0401 14:28:09.248147  2434 net.cpp:157] Top shape: 50 44 (2200)
I0401 14:28:09.248152  2434 net.cpp:165] Memory required for data: 343016400
I0401 14:28:09.248162  2434 layer_factory.hpp:77] Creating layer fc8-leaf_fc8-leaf_0_split
I0401 14:28:09.248172  2434 net.cpp:106] Creating Layer fc8-leaf_fc8-leaf_0_split
I0401 14:28:09.248178  2434 net.cpp:454] fc8-leaf_fc8-leaf_0_split <- fc8-leaf
I0401 14:28:09.248184  2434 net.cpp:411] fc8-leaf_fc8-leaf_0_split -> fc8-leaf_fc8-leaf_0_split_0
I0401 14:28:09.248194  2434 net.cpp:411] fc8-leaf_fc8-leaf_0_split -> fc8-leaf_fc8-leaf_0_split_1
I0401 14:28:09.248239  2434 net.cpp:150] Setting up fc8-leaf_fc8-leaf_0_split
I0401 14:28:09.248260  2434 net.cpp:157] Top shape: 50 44 (2200)
I0401 14:28:09.248266  2434 net.cpp:157] Top shape: 50 44 (2200)
I0401 14:28:09.248270  2434 net.cpp:165] Memory required for data: 343034000
I0401 14:28:09.248276  2434 layer_factory.hpp:77] Creating layer accuracy
I0401 14:28:09.248291  2434 net.cpp:106] Creating Layer accuracy
I0401 14:28:09.248318  2434 net.cpp:454] accuracy <- fc8-leaf_fc8-leaf_0_split_0
I0401 14:28:09.248325  2434 net.cpp:454] accuracy <- label_data_1_split_0
I0401 14:28:09.248333  2434 net.cpp:411] accuracy -> accuracy
…
